base/LeNet.pt (torch, 250460 bytes, 10 tensors)

features.0.weight f4 [6, 1, 5, 5]
0	0x3c5802ad	0.013184232
1	0x3ee7f5e3	0.45304784
2	0x3ea18f43	0.31554613
3	0x3d63f104	0.055649772
4	0x3e0e483a	0.1389474
5	0x3e82f2ad	0.25575772
6	0x3edb4a42	0.42830092
7	0x3ecb2008	0.39672875
8	0x3e8110f1	0.25208238
9	0xbf01c099	-0.50684506
10	0xbd7784bf	-0.06042933
11	0x3eb3de17	0.3513038
12	0x3eb2a034	0.3488785
13	0x3de6e5f7	0.11274331
14	0xbf1b23fd	-0.6060179
15	0xbe60b09c	-0.21942371
16	0x3dedfb6c	0.116202205
17	0x3ed3a9fe	0.4134063
18	0x3e21e008	0.15808117
19	0xbf0060f7	-0.50147957
20	0xbe1e0180	-0.1543026
21	0x3d8ab7a6	0.067733094
22	0x3ec4ab68	0.38412023
23	0x3e4b11d5	0.19831021
24	0xbed344e0	-0.41263485
25	0xbe1a640f	-0.15077232
26	0xbdbce146	-0.09222655
27	0xbe09000e	-0.13378927
28	0x3e21ea70	0.15812087
29	0xbd6c7078	-0.057724446
30	0xbe20b995	-0.15695794
31	0xbe2dc286	-0.16968736
32	0x3e07b2e6	0.13251838
33	0xbc898bf9	-0.016790377
34	0xbe12de80	-0.1434269
35	0xbd8a856b	-0.06763729
36	0xbe48a00d	-0.19592305
37	0xbe34d0cd	-0.17657776
38	0x3e3711a7	0.17877828
39	0xbd6e22c8	-0.05813864
40	0x3dbbaad0	0.09163439
41	0x3da19524	0.078897744
42	0x3ded396e	0.115832195
43	0x3dcfc87e	0.10145663
44	0xbe482273	-0.19544391
45	0x3e9dea92	0.30843025
46	0x3d7dc0db	0.0619515
47	0x3df21a80	0.11821461
48	0x3e118432	0.14210585
49	0x3e4d6db0	0.20061374
50	0x3e244f7b	0.16045944
51	0x3e254083	0.1613789
52	0x3ec24146	0.37940425
53	0x3dc4d936	0.09611742
54	0x3e023070	0.1271379
55	0x3d9730e3	0.07382371
56	0x3ef0ca2e	0.4702925
57	0x3da0c171	0.07849396
58	0xbe92951a	-0.2862938
59	0xbe82ee85	-0.255726
60	0x3ec69579	0.38785914
61	0x3ee1a5d9	0.44071844
62	0x3d22d568	0.0397543
63	0xbef5fa35	-0.48042455
64	0xbeba3b78	-0.36373496
65	0x3e7ce539	0.24696817
66	0x3eb7a7db	0.3587025
67	0xbe7b2c0d	-0.24528523
68	0xbea7e8b1	-0.32794717
69	0x3c91266a	0.017718513
70	0x3eb7bcde	0.35886282
71	0x3ea9cbf2	0.3316341
72	0xbe040c41	-0.128953
73	0xbd53c91a	-0.051705457
74	0xbdfce516	-0.12348382
75	0x3f4ac071	0.7919989
76	0x3f201e6c	0.6254642
77	0x3e96f5cd	0.29484406
78	0xbf162a58	-0.5865836
79	0xbf2cfa14	-0.6756909
80	0x3f591b56	0.84807336
81	0x3f6575ed	0.89633065
82	0x3de7d905	0.1132069
83	0xbf57fa60	-0.84366417
84	0xbf68ec48	-0.90985537
85	0x3f211050	0.62915516
86	0x3f7cb0e4	0.98707414
87	0xbdc45837	-0.09587138
88	0xbee89b55	-0.4543101
89	0xbf3029b9	-0.68813664
90	0x3f23820f	0.6387033
91	0x3f52e516	0.8238081
92	0x3efbf3e2	0.49209505
93	0xbea2ebe8	-0.31820607
94	0xbec5391e	-0.3852014
95	0x3e4edbd2	0.20201042
96	0x3f212963	0.62953776
97	0x3efcd5ae	0.49381775
98	0x3e374283	0.17896466
99	0xbe0e3c0b	-0.13890092
100	0xbde28dae	-0.110621795
101	0xbe35e1ae	-0.17761871
102	0xbdea3c25	-0.11437253
103	0x3d161d2d	0.036648918
104	0x3e772c14	0.24137908
105	0xbe3a20f8	-0.18176639
106	0xbda498e9	-0.08036978
107	0xbe6eb50e	-0.23311254
108	0x3ce058fe	0.027386185
109	0x3e3c27fb	0.18374626
110	0xbe17a28d	-0.14808102
111	0xbeba9da4	-0.36448395
112	0xbedc71f8	-0.430557
113	0xbe961e0f	-0.29319808
114	0xbe785909	-0.24252714
115	0x3d1f0361	0.03882158
116	0x3e8eb87d	0.27875128
117	0xbe09734a	-0.13422886
118	0xbea7066f	-0.32622096
119	0xbe8cee0f	-0.27525374
120	0x3f0534ac	0.52033496
121	0x3effbd23	0.49948987
122	0x3e64d5cd	0.22347184
123	0x3ed07bec	0.40719545
124	0xbb285843	-0.0025687374
125	0x3ea64851	0.32477048
126	0xbd0fb0fa	-0.035080887
127	0x3ce34351	0.02774206
128	0xbdcec202	-0.10095598
129	0x3e311dc7	0.17296515
130	0x3f172b97	0.5905089
131	0x3f97050f	1.1798419
132	0x3f524f8b	0.8215262
133	0x3ee0c95b	0.43903622
134	0x3e2ca369	0.16859211
135	0x3f7db8ff	0.99110407
136	0x3fea2821	1.8293496
137	0x3fd0cd24	1.6312604
138	0x3f752d81	0.9577256
139	0x3e897c93	0.26852855
140	0x3f2e1b5f	0.68010515
141	0x3f897892	1.073992
142	0x3f5c4e1f	0.86056703
143	0x3f2b1d02	0.6684114
144	0x3ec09f34	0.37621462
145	0xbf0ef946	-0.5584911
146	0xbf5de295	-0.8667386
147	0xbf257bfc	-0.6464231
148	0xbf0e2093	-0.55518454
149	0xbe044804	-0.12918097

features.0.bias f4 [6]
0	0x3d2c04e0	0.041996837
1	0x3b3cd0ca	0.0028810971
2	0xbea7fa24	-0.3280803
3	0xbf456255	-0.7710317
4	0x3f32363f	0.6961402
5	0x3c2e094d	0.010622335

features.3.weight f4 [16, 6, 5, 5]
0	0xbd7a3071	-0.061081354
1	0xbd3a7a7b	-0.045526963
2	0x3ccf8864	0.02533359
3	0xbcb69fd0	-0.022293001
4	0xbd751b31	-0.059840385
5	0xbcf248b0	-0.029575676
6	0xbd7a3f89	-0.061095748
7	0x3d3aa39f	0.045566197
8	0x3d48b5b4	0.04900141
9	0xbc0ea27f	-0.008705734
10	0xbe106b4c	-0.1410343
11	0xbd12265c	-0.035681114
12	0x3c1c6999	0.009546661
13	0x3da1f98d	0.07908926
14	0xbc4aed7c	-0.012385722
15	0xbe43a918	-0.19107473
16	0xbdd752a7	-0.105138116
17	0xbd5500d1	-0.05200273
18	0xbd77a6f1	-0.060461942
19	0x3d81314c	0.06308231
20	0xbdca6d5b	-0.09884139
21	0xbdfe0de9	-0.12404997
22	0xbd9a3548	-0.07529694
23	0xbe2d168c	-0.16903132
24	0xbe09c82e	-0.13455269
25	0xbc5ea86a	-0.013589958
26	0x3d904e5c	0.07046196
27	0xbbfcd362	-0.0077156285
28	0x3ca66c2d	0.020315254
29	0x3d06376d	0.032767702
30	0xbdaf5ed7	-0.08563011
31	0x3b2f6f57	0.0026769245
32	0x3c226ef7	0.009914151
33	0xbd2cdeeb	-0.04220478
34	0xbd8c4ad9	-0.068502136
35	0x3d2f3d33	0.042782973
36	0xbd25398d	-0.040338088
37	0x3d0877ff	0.033317562
38	0x3d377ec0	0.044798613
39	0xbc5706f1	-0.013124214
40	0x3dc34c2a	0.095360115
41	0x3db4d56a	0.08829768
42	0xbd9e3ff0	-0.07727039
43	0x3d3b452f	0.045720275
44	0xbd9e09bd	-0.07716701
45	0x3cc97113	0.02459005
46	0x3dfa987a	0.12236114
47	0x3d5ea560	0.054356933
48	0x3d36db6d	0.044642854
49	0x3de32f24	0.11092976
50	0x3ddddd06	0.108331725
51	0xbdab51d9	-0.083652206
52	0x3da89238	0.08231014
53	0x3da07458	0.07834691
54	0xbce5e285	-0.028062114
55	0x3cdf35ed	0.027247394
56	0x3d06124b	0.03273229
57	0x3db48ad8	0.08815545
58	0xbcad18a7	-0.02112992
59	0x3d810e41	0.06301547
60	0xbd2d56bf	-0.042319056
61	0xbdf0f55a	-0.11765547
62	0xbd41bf82	-0.047301777
63	0xbddd3c7f	-0.10802554
64	0xbd9d22ad	-0.076726295
65	0xbdbe28ce	-0.092851266
66	0xbdfa00ba	-0.1220717
67	0xbe2a8460	-0.1665206
68	0xbe2b5da6	-0.16734943
69	0xbe027a48	-0.12741959
70	0x3c1c28d4	0.009531219
71	0xbc98c06f	-0.018646447
72	0x3c0a0447	0.008423871
73	0xbd4e9258	-0.050432533
74	0xbd255b7c	-0.04037045
75	0x3d9f6a0d	0.077838995
76	0xbdd2b439	-0.10288281
77	0x3b9dbb80	0.0048136115
78	0xbe0af7c6	-0.1357108
79	0xbe1dc7ea	-0.15408292
80	0xbc5c19b4	-0.0134338625
81	0x3c3e9613	0.01163246
82	0x3dd68c50	0.10475981
83	0x3cfbefff	0.030754087
84	0xbdf8c7ef	-0.12147509
85	0xbdff83fe	-0.124763474
86	0xbdc1deb4	-0.094663054
87	0xbd57a9a4	-0.052652016
88	0x3d9c8c78	0.0764398
89	0xbc8a972f	-0.016917793
90	0xbe30d128	-0.17267287
91	0xbe7f9807	-0.24960338
92	0xbe230584	-0.15920073
93	0xbe9adcad	-0.30246487
94	0xbe42df90	-0.19030595
95	0xbe326a1f	-0.17423294
96	0xbe06a325	-0.13148172
97	0xbe24b0a8	-0.16083014
98	0xbeaa13d0	-0.3321824
99	0xbeb81485	-0.35953155
100	0xbcd51147	-0.026009215
101	0xbda21eea	-0.07916053
102	0x3d675ed1	0.05648691
103	0x3d69bc5a	0.05706439
104	0xbda550ad	-0.08072028
105	0xbcf215f0	-0.029551476
106	0xbda2602a	-0.07928498
107	0xbd1f035c	-0.038821563
108	0x3caaf749	0.020869868
109	0x3d7f5a12	0.062341757
110	0x3da5bf38	0.08093113
111	0xbd2be974	-0.041970685
112	0x3c9ad914	0.018902339
113	0xbd56c0c1	-0.05242992
114	0xbd090807	-0.03345492
115	0x3e057677	0.13033472
116	0x3d88f79e	0.06687854
117	0x3e08e3ad	0.13368101
118	0x3bb2a244	0.0054514725
119	0xbd913dfb	-0.070919
120	0x3d7b1f13	0.06130893
121	0x3e2f95b8	0.17146957
122	0x3e6da86f	0.23208784
123	0x3ddb2bae	0.107016906
124	0x3dae515e	0.08511613
125	0xbd0939cc	-0.033502385
126	0x3e1d4330	0.15357661
127	0x3e74a196	0.23889765
128	0xbca1cff0	-0.019752473
129	0xbee8eea7	-0.45494577
130	0xbe0973e4	-0.13423115
131	0x3ddea60e	0.10871516
132	0x3eb4e450	0.3533044
133	0x3e0a5bea	0.13511625
134	0xbdd47a06	-0.103748366
135	0xbebc0b17	-0.3672721
136	0x3d4dcd0d	0.05024438
137	0x3ed6a0b8	0.41919494
138	0x3f302729	0.68809754
139	0x3ee6ee2c	0.45103586
140	0xbf1a1a00	-0.6019592
141	0xbf20127f	-0.6252822
142	0xbd4aa728	-0.04947582
143	0x3ed5523d	0.41664305
144	0x3ee9b5f4	0.45646632
145	0xbe525c2d	-0.20542975
146	0xbe509b40	-0.20371723
147	0xbf045d10	-0.517045
148	0xbf501af6	-0.8129114
149	0xbef51c8a	-0.47873336
150	0x3dbbdc50	0.09172881
151	0xbdbf50d8	-0.093415916
152	0xbd00aaf7	-0.031413045
153	0xbe301a89	-0.17197622
154	0xbe00e712	-0.12588146
155	0xbda7f3d4	-0.082008034
156	0xbd4c8734	-0.049933627
157	0xbd2f2034	-0.04275532
158	0x3cae32a1	0.021264376
159	0x3e41ff11	0.18944956
160	0x3cfc2fcb	0.030784508
161	0xbe223a83	-0.15842633
162	0x3c67d78f	0.014150514
163	0x3d8a41a6	0.06750803
164	0x3de394dd	0.11112378
165	0x3dd32976	0.103106424
166	0x3d3fea41	0.04685426
167	0x3e680227	0.22657071
168	0x3e00e7d9	0.12588443
169	0xbcd40277	-0.025880082
170	0x3df272ed	0.118383266
171	0x3d5debaf	0.054179844
172	0xbd13bfa7	-0.036071446
173	0xbda907b5	-0.08253423
174	0xbd923806	-0.07139592
175	0xbbf66fc9	-0.00752065
176	0xbd23c5e4	-0.039983645
177	0x3d0c4a58	0.034250587
178	0xbd9ee8fe	-0.077592835
179	0x3d576ffb	0.052597027
180	0xbbb9d0c3	-0.0056706383
181	0xbd9b2995	-0.075762905
182	0xbd0f94b9	-0.035053942
183	0x3d2b2526	0.041783474
184	0xbd192ac6	-0.037394308
185	0xbd7b2be8	-0.06132117
186	0xbd0bf022	-0.034164555
187	0xbd48d323	-0.04902948
188	0xbd8045c7	-0.06263309
189	0xbdb93efd	-0.09045217
190	0x3da2eb24	0.07955006
191	0xbd696c5a	-0.056988098
192	0x3c1f6b50	0.009730175
193	0xbd759495	-0.059956152
194	0x3d54ee63	0.051985156
195	0xbd766813	-0.060157847
196	0x3d401477	0.046894517
197	0x3da9ae0e	0.082851514
198	0x3daa10a6	0.08303957
199	0x3c6ee856	0.01458176
200	0xbbed7749	-0.007246886
201	0x3cc5a25c	0.02412527
202	0x3d00ae45	0.031416196
203	0xbdcf8762	-0.10133244
204	0xbdd5177c	-0.1040487
205	0xbc7a1695	-0.015264173
206	0x3d5c8655	0.053839047
207	0xbdc21202	-0.09476091
208	0x3b989a27	0.0046570483
209	0x3d88e55e	0.06684373
210	0x3c691152	0.014225321
211	0x3ccd157c	0.025034659
212	0x3ac9f17e	0.0015407053
213	0x3d4d17bd	0.050071467
214	0x3d6f4b91	0.058421675
215	0xbdb62f34	-0.08895722
216	0x3d9d1517	0.07670038
217	0x3d296156	0.041352592
218	0xbd9fe556	-0.07807414
219	0xbe056a4a	-0.13028827
220	0xbd196472	-0.037449308
221	0x3d281594	0.041036204
222	0xbd54048e	-0.051762156
223	0xbdbcc52a	-0.092172936
224	0xbd823549	-0.063578196
225	0x3cb1e8bc	0.021717422
226	0x3d53d1cf	0.05171376
227	0xbda663ec	-0.08124527
228	0xbe9215d2	-0.28532273
229	0xbe5cb399	-0.21552886
230	0x3d85a176	0.06524937
231	0xbde69b39	-0.11260075
232	0xbe9e2333	-0.3088623
233	0xbeae552c	-0.34049356
234	0xbdaa6f07	-0.08321958
235	0x3d7e93f8	0.062152833
236	0xbd92ecef	-0.07174098
237	0xbe0d62ad	-0.13807173
238	0x3e0f9b89	0.14024176
239	0x3ea140f7	0.31494877
240	0xbe17c4a7	-0.1482111
241	0xbca38fd6	-0.019966047
242	0x3d946803	0.07246401
243	0x3e0f514c	0.13995856
244	0x3cd8938e	0.026437547
245	0xbe322550	-0.17397046
246	0x3d7dac62	0.061931975
247	0xbc8e8e8d	-0.017401958
248	0xbd8e9dfe	-0.06963728
249	0xbdf207de	-0.11817907
250	0x3d88d9f9	0.066822
251	0x3ba64e89	0.00507528
252	0x3bf86b59	0.007581156
253	0xbe0efd4d	-0.13963814
254	0xbd314ad2	-0.043284245
255	0xbdee2118	-0.11627406

features.3.bias f4 [16]
0	0x3d3b54d6	0.045735203
1	0xbdc3bb93	-0.09557261
2	0xbd176073	-0.036957216
3	0xbdc671a3	-0.09689643
4	0xbeb7164c	-0.357592
5	0x3d611499	0.054951284
6	0xbd6d6e34	-0.057966426
7	0xbe5c6fab	-0.21526973
8	0xbdd06935	-0.10176317
9	0xbe55d2cc	-0.20881194
10	0xbdcfcfe2	-0.101470724
11	0xbdcdf9aa	-0.10057385
12	0xbe7c6e2a	-0.24651399
13	0xbe655fca	-0.22399822
14	0xbd111cda	-0.035427906
15	0xbe072488	-0.1319753

classifier.0.weight f4 [120, 400]
0	0xbcc2151f	-0.023691712
1	0x3dbeacb6	0.09310286
2	0x3c3d9618	0.01157143
3	0xbd8c2d65	-0.06844596
4	0x3d254bfe	0.040355675
5	0xbbcef79f	-0.00631614
6	0x3cdbba7d	0.026822323
7	0xbd9f974f	-0.07792532
8	0xbd18e83d	-0.037330855
9	0xbc2b44b7	-0.010453395
10	0xbe30e845	-0.17276104
11	0xbe46e616	-0.19423708
12	0xbce26656	-0.027636688
13	0xbd724db9	-0.059156153
14	0x3b2e73fc	0.0026619425
15	0x3c8b0d71	0.016974183
16	0x3c80abd0	0.015706927
17	0x3d9f9e01	0.07793809
18	0x3adbb77a	0.0016763054
19	0x3dd3fa75	0.10350505
20	0x3dcb7864	0.09935072
21	0x3afca989	0.00192766
22	0x3c89548c	0.016763948
23	0x3de59874	0.11210719
24	0x3df92fea	0.12167342
25	0xb991be1a	-0.00027798192
26	0x3d0ee19d	0.03488313
27	0x3da9bd3c	0.08288047
28	0xbc86c2b5	-0.016450265
29	0xbd54dc2a	-0.051967777
30	0xbd936dea	-0.07198699
31	0xbd8572cf	-0.065160386
32	0xbdd8256f	-0.10554015
33	0xbd9aae15	-0.07552735
34	0x3c22f794	0.009946723
35	0x3d8a8791	0.067641385
36	0xbdd9a8bb	-0.10627886
37	0xbcd0287d	-0.025409931
38	0x39f426e4	0.00046568282
39	0x3b1550b1	0.0022783692
40	0x3da7afe1	0.08187843
41	0x3e0de99a	0.13858643
42	0xbca84d48	-0.020544663
43	0xbd5cd1a5	-0.05391087
44	0xbccee4f1	-0.025255652
45	0xbd4ea60a	-0.050451316
46	0xbca7f537	-0.02050267
47	0xbcd45f31	-0.025924297
48	0xbd7a3283	-0.061083328
49	0xbd3d3bde	-0.046199672
50	0x3c187d2d	0.009307188
51	0x3da359eb	0.07976135
52	0x3c5c4f68	0.013446666
53	0x3d9d42bf	0.076787464
54	0x3cebd20a	0.028786678
55	0xbc16c48a	-0.009202132
56	0xbc0686e4	-0.008210871
57	0xbc36036e	-0.011109216
58	0x3dd3b5fa	0.10337444
59	0xbd1493e2	-0.036273845
60	0x3d4b2348	0.049594194
61	0x3c38a00f	0.01126863
62	0xbe0313fd	-0.12800594
63	0xbbefe556	-0.00732104
64	0xbd9225e2	-0.07136132
65	0xbda44cb1	-0.0802244
66	0x3d0dd4dd	0.03462683
67	0x3e26b408	0.16279614
68	0x3d04ad41	0.03239179
69	0x3c81e521	0.015856327
70	0xbc4f35bf	-0.012647091
71	0x3e10d8ca	0.14145198
72	0x3e105ea4	0.14098603
73	0x3e0ec259	0.13941325
74	0x3ca7ac41	0.02046788
75	0x3d595cf6	0.05306717
76	0xbd17b84b	-0.03704099
77	0xbd577785	-0.052604217
78	0xbe1172b0	-0.14203906
79	0xbd1f7934	-0.038933948
80	0xbd872348	-0.06598526
81	0xbd918df6	-0.07107155
82	0x3b95edcc	0.0045754667
83	0xbd81785b	-0.06321784
84	0xbd0c7f71	-0.034301225
85	0x3d50a97d	0.050942887
86	0xbc248f2d	-0.010043901
87	0xbc8db9aa	-0.017300446
88	0xbb47e033	-0.0030498623
89	0x3c9374e0	0.018000066
90	0x3dc6e302	0.09711267
91	0x3cebda4c	0.028790615
92	0xb9b599b8	-0.0003463754
93	0x3c2bb7b7	0.010480813
94	0x3d6d9770	0.05800575
95	0x3d962102	0.073305145
96	0xbdb4bfae	-0.088256225
97	0xbde358cc	-0.11100921
98	0xbd34e9b8	-0.044168204
99	0xbd5bb1e7	-0.053636458
100	0xbd2c8d8d	-0.04212718
101	0xbdb2e4ea	-0.08735068
102	0xbbf051ad	-0.0073339553
103	0xbd1af28c	-0.037828967
104	0xbe0faeb5	-0.14031489
105	0xbd08d7be	-0.033408873
106	0xbcccdc44	-0.025007375
107	0xbd88c49e	-0.06678127
108	0xbd09ea17	-0.03367051
109	0xbd06fcac	-0.03295581
110	0xbb4bc89d	-0.0031094917
111	0x3b906930	0.0044070706
112	0x3d3bc8cc	0.04584579
113	0x3c835f6d	0.016036713
114	0xb9ca1768	-0.0003854588
115	0x3ce33653	0.027735865
116	0x3c05f0ab	0.0081750555
117	0xbcd20ddd	-0.025641376
118	0x3d142631	0.036169235
119	0xbde0fcbd	-0.10985706
120	0xbc6a2251	-0.014290408
121	0x3ceb805d	0.028747732
122	0x3d1651d6	0.03669914
123	0xbd2e3d21	-0.042538766
124	0xbd691e07	-0.056913402
125	0xbc10d007	-0.00883866
126	0xbd09df2e	-0.033660106
127	0x3b4b8694	0.0031055557
128	0x3bfa3d27	0.0076366845
129	0x3a66a80d	0.0008798845
130	0x3daeaf7e	0.08529566
131	0x3ca29f02	0.019851211
132	0xbde0342b	-0.1094745
133	0xbbc0b2a1	-0.005880669
134	0xbddaa275	-0.106755175
135	0x3cbc0f75	0.02295659
136	0xbc3ffd8d	-0.011718166
137	0xbd8a3e33	-0.06750145
138	0xbd5f8ab7	-0.05457565
139	0xbd57be2a	-0.05267159
140	0xbd589d29	-0.052884255
141	0x3d694bd2	0.056957074
142	0x3dc4b3c5	0.09604601
143	0x3d2702bf	0.040774103
144	0x3d4b233a	0.04959414
145	0xbc413c02	-0.011794092
146	0x3d9de6e4	0.077100545
147	0x3dc4c836	0.096085
148	0xbd32d2e3	-0.04365815
149	0x3df2422d	0.11829028
150	0xbbe6526e	-0.0070288694
151	0x3d119d98	0.035550684
152	0x39ceee34	0.00039468857
153	0xbd87f132	-0.06637801
154	0xbd58beb4	-0.052916244
155	0x3c5f5e04	0.013633255
156	0xbc77629f	-0.015099197
157	0xb595879d	-1.1140834e-06
158	0xbd814cc3	-0.06313469
159	0x3cabd94f	0.020977644
160	0x3dd75e7c	0.10516068
161	0x3d45f1a2	0.048326142
162	0x3cb16f10	0.021659404
163	0x3c775e38	0.015098147
164	0x3c1e5bfd	0.009665486
165	0xbd8ce32a	-0.068792656
166	0xbc4329dc	-0.0119118355
167	0x3c426330	0.011864468
168	0xbc3f2e6a	-0.011668781
169	0x3af25680	0.0018488914
170	0xbdcd7ec7	-0.100339465
171	0x3cf2f5eb	0.029658278
172	0xbd18275b	-0.037146907
173	0x3d20adc5	0.03922822
174	0x3dafe3bf	0.08588361
175	0x3d2b16e5	0.04176988
176	0x3c86e6d9	0.016467499
177	0xbc43d7d6	-0.011953315
178	0x3cac6482	0.02104402
179	0xbd36ed76	-0.044660054
180	0xbd4371b3	-0.047715854
181	0xbcd8167d	-0.02637791
182	0xbd8bc9cc	-0.06825599
183	0xbd3ca496	-0.0460554
184	0x3d38eaaf	0.045145687
185	0xbd4b1798	-0.049583048
186	0xbd090b05	-0.033457775
187	0xbb85392c	-0.0040656533
188	0xbaf43595	-0.0018631691
189	0x3d01cf80	0.031692028
190	0xbd53b683	-0.05168773
191	0xbc55009f	-0.013000636
192	0x3ca3e62d	0.020007217
193	0xbd6b434d	-0.05743723
194	0x3ca599c6	0.020214926
195	0xbd56549b	-0.05232678
196	0xbdcf9d30	-0.10137403
197	0xbd1f4d03	-0.038891803
198	0xbd25f754	-0.040519074
199	0xbce8a030	-0.028396696
200	0xbd8db443	-0.06919148
201	0xbc69ce51	-0.014270381
202	0xbd14ea4e	-0.036356263
203	0xbcb29c1d	-0.021802956
204	0xbe19fe20	-0.15038347
205	0xbc8f430c	-0.017488025
206	0xbd83903d	-0.06423996
207	0xbd9a56a7	-0.07536059
208	0xbd288ab7	-0.041147914
209	0x3d0868c5	0.03330304
210	0x3d182f9b	0.037154775
211	0x3d1bdf58	0.038054794
212	0x3e0c9df7	0.13732134
213	0xbd385404	-0.045002
214	0xbd01dc97	-0.03170451
215	0x3cbe9c5e	0.023267921
216	0x3ce0a756	0.027423542
217	0x3e1d951b	0.1538891
218	0xbb2e5b11	-0.0026604573
219	0xbcf499e0	-0.02985853
220	0x3ceb65c3	0.028735047
221	0x3ce8899d	0.028385932
222	0x3da3a796	0.07990949
223	0x3db8b898	0.090195835
224	0x3e024c70	0.12724471
225	0xbd67ba4a	-0.056574143
226	0xbdbe01c9	-0.09277684
227	0xbd92b1e3	-0.071628354
228	0x3cd70519	0.026247548
229	0x3a3a7c50	0.0007113861
230	0x3d22e7d2	0.039771862
231	0xbd0d584b	-0.03450803
232	0x3dc079b7	0.09398215
233	0xbc7d6b75	-0.015467514
234	0x3ca6a9c4	0.020344622
235	0xbc589098	-0.013218068
236	0x3e0336ba	0.12813845
237	0x3e0b28ab	0.13589732
238	0xbd8e02fe	-0.069341645
239	0xbd1b9e3d	-0.037992705
240	0xbd952ec7	-0.07284313
241	0xbdb7bf55	-0.089720406
242	0xbdd11f36	-0.10211031
243	0xbcc4d9cf	-0.02402964
244	0xbdc22fd4	-0.09481779
245	0x3d865588	0.065592825
246	0x3de15d78	0.11004156
247	0xbda31781	-0.079634674
248	0x3dc187b6	0.09449713
249	0x3cfb9c11	0.030714067
250	0x3d013d95	0.03155287
251	0x3b4a62a4	0.0030881548
252	0xbc30848a	-0.010773787
253	0x3c8b860d	0.017031694
254	0xbc2f7cf3	-0.010710943
255	0xbc890505	-0.016726026

classifier.0.bias f4 [120]
0	0x3d17c4cb	0.03705291
1	0x3cb562e2	0.022141878
2	0x3c8fb338	0.017541513
3	0xbbb31b96	-0.005465935
4	0x3cebc439	0.02878009
5	0xbd65713d	-0.056016196
6	0xbca22b74	-0.01979611
7	0x3cc2fc75	0.023802022
8	0x3d4a5eec	0.04940693
9	0xbd184024	-0.037170544
10	0x3cf94b1d	0.030431325
11	0xbd3e9c6f	-0.046535905
12	0xbb165ddf	-0.0022944135
13	0xbd016f33	-0.03160019
14	0x3c230189	0.0099490965
15	0xbc31055b	-0.0108044995
16	0x3c3d748f	0.011563434
17	0x3cc0eab3	0.023549413
18	0xbc7fafd8	-0.015605889
19	0xbc2891c2	-0.010288658
20	0x3c1cdab5	0.009573628
21	0xbcad94ff	-0.021189211
22	0x3c14f1d9	0.009090864
23	0x3c8d9b2f	0.017285911
24	0xbc26377c	-0.010145064
25	0x3d704f57	0.058669414
26	0x3d296d7d	0.04136418
27	0x3caa3477	0.02077697
28	0x3ae183fa	0.001720547
29	0x3c853cae	0.016264286
30	0x3d689ecc	0.056792066
31	0x3d683719	0.05669317
32	0xbd5a9a0d	-0.05336957
33	0x3d40dcf2	0.04708571
34	0x3d0bf045	0.034164686
35	0x3b8d7fc2	0.0043182084
36	0x3d148900	0.036263466
37	0xbc786d31	-0.015162752
38	0xbcceefcd	-0.02526083
39	0x3d1d1b04	0.038355842
40	0x3bd8449a	0.006599975
41	0xbce5cba1	-0.0280512
42	0xbc080b47	-0.00830347
43	0x3c92c250	0.017914921
44	0x3c0063b9	0.007836276
45	0x3cd9d068	0.026588634
46	0x3cd95110	0.026527911
47	0xbcab9ebf	-0.02094972
48	0xbd60e2ac	-0.05490367
49	0xbc56eecd	-0.013118458
50	0x3c84d7b5	0.016216138
51	0xbc0b90a1	-0.008518369
52	0xbd5a90ce	-0.053360753
53	0xbc2451ad	-0.010029239
54	0xbd61c013	-0.055114817
55	0x3c998154	0.018738426
56	0xbd237193	-0.039903235
57	0xbc1a4f6d	-0.009418351
58	0xbc5f52ef	-0.013630613
59	0x3c55bc28	0.013045348
60	0x3c4953f3	0.012288081
61	0xbc9cc430	-0.019136518
62	0xbcdcdcdb	-0.02696078
63	0x3d58ab07	0.05289748
64	0x3c442e78	0.01197397
65	0xbb93cf4e	-0.0045107966
66	0x3d0e05e1	0.034673575
67	0xbcf04b1e	-0.029332694
68	0x3b9664e3	0.0045896634
69	0x3d15fa65	0.036615748
70	0xbbd987d7	-0.006638508
71	0x3cb82128	0.022476748
72	0x3d7d55be	0.06184935
73	0x3c88d9fb	0.016705504
74	0xbc8ef1af	-0.017449228
75	0x3d1d09e7	0.03833952
76	0x3c82421f	0.01590067
77	0x3be1d32a	0.006891628
78	0xbb7466ae	-0.0037292647
79	0x3c870147	0.016480101
80	0xbd2369ac	-0.0398957
81	0x3d02e46a	0.031956114
82	0xbd2b5f51	-0.041838948
83	0xbd214ff2	-0.039382882
84	0xbd77e2cf	-0.060519036
85	0x3bf89a31	0.0075867404
86	0x3bed8ded	0.007249585
87	0x3ced8c08	0.028997436
88	0xbc42d389	-0.011891254
89	0x3c8da255	0.01728932
90	0xbacb4193	-0.0015507214
91	0x3bf9317c	0.007604776
92	0xbc3819a4	-0.011236582
93	0xbc92a0b3	-0.017898893
94	0x3c53a09b	0.012916709
95	0xbcb1c44c	-0.021700047
96	0x3d002b4f	0.031291302
97	0x3cef8328	0.029237345
98	0xbcf4d76b	-0.029887876
99	0xbd2ddef8	-0.042448968
100	0x3d231e81	0.039824013
101	0xbd2d5e54	-0.042326286
102	0xbc2b22b1	-0.010445283
103	0x3c15f26f	0.009152039
104	0x3c90a007	0.017654432
105	0x3d08544b	0.033283513
106	0x3d1a4874	0.037666753
107	0xbc24cd3a	-0.010058695
108	0xbc4e7f36	-0.012603572
109	0xbd480165	-0.048829455
110	0x3cd3efe4	0.025871225
111	0x3d221ce6	0.03957834
112	0xbd2c7180	-0.04210043
113	0x3c998bd4	0.018743433
114	0xbd582120	-0.052765965
115	0xbb157a3e	-0.0022808458
116	0xbaf9fc88	-0.0019072453
117	0x3d216052	0.0393985
118	0xb9a3d99e	-0.0003125192
119	0x3cd1b26f	0.02559778

classifier.2.weight f4 [84, 120]
0	0xbe19b36e	-0.15009853
1	0x3d6d376f	0.057914194
2	0x3e30f94b	0.17282598
3	0xbd83ea65	-0.064411916
4	0x3e210477	0.1572436
5	0x3e12c9ae	0.14334747
6	0x3cf2ba10	0.029629737
7	0xbe11d3e2	-0.14240983
8	0xbb058ee1	-0.0020379352
9	0x3c9679ff	0.01836872
10	0xbe039972	-0.12851503
11	0xbe5890ee	-0.21149036
12	0x3e98ac9a	0.29819185
13	0xbccb0941	-0.024784686
14	0xbd2d8a21	-0.042368058
15	0x3e28011a	0.1640667
16	0x3d0d6daa	0.034528412
17	0xbe3e4456	-0.18580756
18	0xbd929c16	-0.07158677
19	0xbe34bda6	-0.1765047
20	0xbe204495	-0.15651162
21	0xbe2dccae	-0.1697261
22	0x3c09620f	0.008385195
23	0xbdb643e4	-0.08899668
24	0x3e38a637	0.18032156
25	0xbd8cfe5a	-0.06884451
26	0xbe15d293	-0.14631109
27	0x3d36990f	0.04457956
28	0xbe6c8a98	-0.23099744
29	0xbdbb5f32	-0.091490164
30	0x3d5fc28e	0.0546289
31	0xbe7c75f1	-0.24654366
32	0x3d141004	0.036148086
33	0x3df81b81	0.12114621
34	0x3e03b5b3	0.12862282
35	0x3e4c969f	0.19979332
36	0xbda75c8d	-0.081719495
37	0xbeb54b4f	-0.35409018
38	0x3d9e0175	0.07715122
39	0x3e8bbd49	0.2729285
40	0x3dbbb3b0	0.09165132
41	0xbdbd5a4d	-0.09245739
42	0xbe951bbc	-0.29122722
43	0x3e056229	0.13025726
44	0xbd81ddba	-0.06341119
45	0x3cc02ca4	0.023458786
46	0x3df8ed8b	0.12154683
47	0xbd9cf6b6	-0.07664244
48	0x39a9bbe4	0.0003237418
49	0x3eb71d65	0.35764614
50	0x3e8e750c	0.27823675
51	0x3e1345b3	0.14382057
52	0x3da95000	0.08267212
53	0xbe0c7aec	-0.13718766
54	0x3d89d070	0.067292094
55	0xbd7293f9	-0.05922315
56	0x3d933dbc	0.07189509
57	0xbe57ae6a	-0.21062627
58	0x3d902246	0.07037787
59	0xbda10189	-0.07861621
60	0xbd11c2a3	-0.03558601
61	0xbe457e14	-0.19286376
62	0x3d032a4b	0.032022756
63	0xbe4da26d	-0.20081492
64	0xbca607e4	-0.020267434
65	0x3c4c2e1a	0.012462163
66	0x3e1810ec	0.14850205
67	0x3dca4c7b	0.09877869
68	0x3de01d87	0.10943132
69	0xbe966d6b	-0.29380354
70	0x3db19883	0.086716674
71	0xbdd50242	-0.10400821
72	0x3de3a068	0.111145794
73	0x3e7121dc	0.23548073
74	0x3dbf1de5	0.09331874
75	0x3e30ca6e	0.17264721
76	0x3df2cff8	0.11856073
77	0x3d81f96e	0.06346403
78	0xbe4ecaa3	-0.20194487
79	0xbe500b63	-0.20316844
80	0x3dcc4b8b	0.09975346
81	0x3b111cb0	0.0022142343
82	0x3d26ef47	0.040755536
83	0xbe6ceec9	-0.23137964
84	0x3d6ec556	0.058293663
85	0x3ca2a751	0.019855173
86	0x3e501d69	0.20323719
87	0xbe33ba06	-0.17551431
88	0x3c077e25	0.008269821
89	0x3e9200c8	0.2851622
90	0xbe11cd85	-0.14238556
91	0x3d724882	0.05915118
92	0x3e37d98d	0.17954083
93	0x3e8c4ef7	0.27403995
94	0xbe3faef1	-0.18719079
95	0xbd54dd03	-0.051968586
96	0x3db79b3c	0.089651555
97	0xbe93acc8	-0.2884276
98	0xbd0eadf0	-0.03483385
99	0x3d8f5db5	0.07000295
100	0x3dabd99a	0.083911136
101	0x3e351efb	0.176876
102	0x3e1ffc8e	0.15623686
103	0x3daa3420	0.08310723
104	0xbe0e9434	-0.13923723
105	0x3e3fda1c	0.18735546
106	0xbd2bb58e	-0.04192119
107	0xbdead444	-0.11466268
108	0xbe65b671	-0.22432877
109	0x3d2245ae	0.039617233
110	0x3e7f5e8c	0.2493841
111	0x3d1ce86e	0.0383076
112	0x3daf0679	0.085461564
113	0x3c8089fc	0.015690796
114	0x3e7433f8	0.2384795
115	0xbe22cfe1	-0.15899612
116	0xbd3c99db	-0.046045166
117	0x3e2dc965	0.16971357
118	0xbe240aeb	-0.1601979
119	0xbe475e5b	-0.19469588
120	0x3e94bdde	0.29051107
121	0x3cd2a6b8	0.025714263
122	0xbdf27d60	-0.1184032
123	0x3e8c679e	0.27422804
124	0xbe60fa60	-0.2197051
125	0x3d504284	0.050844684
126	0x3c6edc8c	0.01457895
127	0x3e04a5f8	0.12953937
128	0x3d5b2bd1	0.053508583
129	0x3e380300	0.17969894
130	0x3e3b4c87	0.18290912
131	0x3e5b2081	0.21399118
132	0xbca5f6f3	-0.020259356
133	0x3d2bbae3	0.041926276
134	0xbe3cdaf3	-0.18442897
135	0xbe431fb9	-0.1905507
136	0x3d14f744	0.036368623
137	0xbddd6ff8	-0.10812372
138	0x3d96feb6	0.07372801
139	0x3e1c9e12	0.15294674
140	0xbd63bf7a	-0.05560253
141	0x3dc0b45e	0.09409402
142	0x3cf98a15	0.03046135
143	0xbd6a42df	-0.05719268
144	0x3e0e6226	0.13904628
145	0xbe25f33c	-0.16206068
146	0x3dcf226b	0.101139866
147	0xbe602f27	-0.21892987
148	0xbd95a1b2	-0.073062316
149	0x3ccb0d76	0.024786692
150	0xbe22bc42	-0.15892127
151	0xbd8811a8	-0.06643993
152	0xbdcf3861	-0.10118175
153	0x3c35ccdb	0.011096205
154	0xbe339484	-0.17537123
155	0xbdca1b6f	-0.09868514
156	0xbe0a3756	-0.13497671
157	0xbd1da095	-0.03848322
158	0xbe345a04	-0.17612463
159	0xbd67e12a	-0.056611218
160	0xbe181209	-0.1485063
161	0x3e014667	0.12624513
162	0x3d404181	0.04693747
163	0xbdb35c29	-0.087578125
164	0x3dac0609	0.083995886
165	0x3e75321d	0.23944898
166	0xbe7204c3	-0.23634629
167	0xbdc35255	-0.09537188
168	0x3d8d7f8a	0.06909092
169	0x3b46bb02	0.0030323868
170	0x3d809adf	0.06279539
171	0xbe4f6578	-0.20253551
172	0x3bddaa65	0.0067646974
173	0x3e3450a4	0.17608887
174	0xbd9e60f8	-0.07733339
175	0x3d19207e	0.037384503
176	0x3b7b421e	0.003833897
177	0x3de88b58	0.11354703
178	0xbe3f3358	-0.1867193
179	0xbd1635e4	-0.036672488
180	0xbdac3230	-0.0840801
181	0x3dd99c9f	0.10625576
182	0x3e42c21e	0.19019362
183	0xbd529c9a	-0.05141888
184	0x3e486813	0.19570951
185	0x3e31aee6	0.17351875
186	0xbcf6a3dc	-0.030107431
187	0x3e401b4d	0.18760414
188	0xbddeff7b	-0.10888573
189	0x3da3be3b	0.07995268
190	0x39cc6de1	0.00038991778
191	0x3e24402a	0.16040102
192	0xbe682761	-0.22671272
193	0x3e7b9696	0.24569163
194	0x3e6be0a3	0.23034911
195	0xbdbe2fbe	-0.0928645
196	0x3d51b9b2	0.051202483
197	0xbc3671e7	-0.011135555
198	0x3e185933	0.14877777
199	0xbce00d8d	-0.027350212
200	0x3df1c8b5	0.1180586
201	0xbe062596	-0.13100275
202	0x3d08edd2	0.033429928
203	0x3dd782d7	0.105230026
204	0x3e881845	0.26581016
205	0x3d8a2aee	0.067464694
206	0xbda9653a	-0.082712606
207	0xbd0a159b	-0.03371201
208	0xbe25bfdb	-0.16186468
209	0xbc43c911	-0.011949793
210	0x3e1c21a1	0.15247203
211	0xbcac2cb6	-0.021017414
212	0xbe2fdfd6	-0.1717523
213	0xbc8be8a5	-0.017078707
214	0x3c820440	0.015871167
215	0xbe120147	-0.142583
216	0xbe3149bd	-0.17313285
217	0x3e6d0228	0.23145354
218	0x3d932c6a	0.07186206
219	0xbd90fa08	-0.0707894
220	0x3dcf99e3	0.101367734
221	0x3e8b7cb0	0.27243567
222	0xbd7e10fc	-0.062027916
223	0x3c8465f7	0.016161902
224	0x3d93fa41	0.072254665
225	0x3a500183	0.00079347956
226	0x3e1f7297	0.15571056
227	0xbe550854	-0.20803958
228	0x3df746d4	0.12074056
229	0xb9bdf493	-0.0003623111
230	0xbe6a48fb	-0.22879402
231	0x3c5190a2	0.012790831
232	0xbe67a988	-0.22623265
233	0x3e0d95b0	0.13826632
234	0xbda67dcd	-0.08129463
235	0x3dfb9a23	0.122852586
236	0xbd6d6a3f	-0.057962652
237	0xbe90de3e	-0.28294557
238	0xbd69a90c	-0.05704598
239	0x3cdda5d7	0.027056618
240	0xbd9fda94	-0.07805362
241	0x3b6298b7	0.0034575888
242	0x3dd081a3	0.10180976
243	0x3c809ae2	0.015698854
244	0x3e6ee949	0.23331179
245	0x3dd4e08e	0.10394393
246	0xbe63dba0	-0.22251749
247	0xbe4ccf92	-0.20001057
248	0xbe572abd	-0.21012397
249	0xbc9d4c8c	-0.01920154
250	0xbd86628d	-0.06561766
251	0x3d7fec03	0.062480938
252	0x3e3cd6b4	0.18441278
253	0x3eb92906	0.3616411
254	0x3dff7a0a	0.12474449
255	0x3e625bfb	0.221054

classifier.2.bias f4 [84]
0	0x3da6a78a	0.08137424
1	0x3d84c8ed	0.06483636
2	0xbbc573e9	-0.0060257805
3	0xbd17cd5a	-0.037061073
4	0xbd9b9795	-0.07597271
5	0xbd2ee714	-0.042700842
6	0xbd28ccf5	-0.041211087
7	0xbd60f532	-0.054921336
8	0xbc229663	-0.00992355
9	0xbd9a8157	-0.07544201
10	0xbe1f74a2	-0.15571836
11	0xba3d810e	-0.00072290085
12	0x3bdaa024	0.0066719223
13	0x3d2488ee	0.04016965
14	0xbdbfb148	-0.093599856
15	0x3dae10ba	0.08499284
16	0xbd814d77	-0.06313603
17	0x3c9b05f4	0.018923737
18	0x3d187547	0.03722122
19	0x3d888445	0.066658534
20	0xbda60068	-0.08105546
21	0xbd31124d	-0.043230344
22	0x3d063017	0.032760706
23	0x3c9f6e26	0.019461703
24	0xbd454271	-0.048159067
25	0xbdc7f628	-0.097637475
26	0x3c36999e	0.011145024
27	0x3dddc5c5	0.10828737
28	0x3d3c124c	0.045915887
29	0xbcefe23a	-0.029282678
30	0x3c5c8e32	0.013461636
31	0xbd3e36c5	-0.04643895
32	0x3c3428ed	0.010996086
33	0x3d22243c	0.039585337
34	0xbdb65c32	-0.089043036
35	0x3ce24c66	0.02762432
36	0xbd939ed5	-0.07208029
37	0x3e032552	0.12807205
38	0xbd3453dd	-0.04402529
39	0xbd3a2449	-0.04544476
40	0x3cc236c2	0.023707751
41	0xbcfeb33c	-0.031091325
42	0xbd3e0440	-0.046390772
43	0xbc2d5e73	-0.0105816005
44	0x3d1f6944	0.03891875
45	0xbd09f68a	-0.033682384
46	0x3dcffda9	0.10155804
47	0x3d856d2a	0.06514962
48	0x3c04a52e	0.0080960225
49	0x3d324d2c	0.043530628
50	0x3dbf28d6	0.09333961
51	0x3ce2dc59	0.02769296
52	0xbd3d06c4	-0.04614903
53	0x3d29966d	0.041403223
54	0xbd586d1e	-0.052838437
55	0x3dd50b5f	0.104025595
56	0x3cf14620	0.029452384
57	0xbdbe3bae	-0.09288727
58	0x3cdc8538	0.026918992
59	0xbd994f97	-0.07485884
60	0x3cf99797	0.030467791
61	0x3d4a1f92	0.049346514
62	0xbde0d4d1	-0.109780915
63	0x3d1c01bc	0.03808759
64	0xbd4c1a41	-0.049829725
65	0xbd10b767	-0.035331156
66	0x3d160e68	0.036634833
67	0x3d87c74b	0.06629809
68	0x3d408207	0.046999004
69	0xbcade57a	-0.021227587
70	0xbcae4554	-0.021273293
71	0xbdaad5df	-0.08341574
72	0xbbf900c3	-0.0075989678
73	0x3c999783	0.018749004
74	0x3c49d7ed	0.012319547
75	0xbda0c184	-0.0784941
76	0x3d8c8ef2	0.06863202
77	0xbb8a53f8	-0.0042214356
78	0x3dc9da02	0.09856035
79	0x3da25510	0.07926381
80	0xbdcc316a	-0.099703625
81	0x3db644e2	0.08899857
82	0x3c282bdb	0.010264362
83	0xbd9a8dbf	-0.07546567

classifier.4.weight f4 [10, 84]
0	0x3f0d8afd	0.55290204
1	0xbedcf6b1	-0.4315696
2	0x3eae6c44	0.34066975
3	0x3f1dcf5f	0.6164455
4	0x3e52191c	0.20517391
5	0xbe7d907e	-0.2476215
6	0xbec154fe	-0.37760156
7	0x3f5b6770	0.8570471
8	0x3f3d3452	0.7390796
9	0x3f29dcf9	0.663528
10	0xbeefe9c9	-0.4685805
11	0xbedbf9ee	-0.4296412
12	0xbf0273f4	-0.5095818
13	0xbedcafca	-0.43102866
14	0xbe8f93bb	-0.28042397
15	0x3f851dbc	1.0399699
16	0xbea335c7	-0.31876966
17	0xbe8ab5bf	-0.27091786
18	0x3f3be13f	0.73390573
19	0xbef71d4c	-0.4826454
20	0xbf3f0660	-0.746191
21	0xbe4766d6	-0.19472823
22	0xbf1b02a6	-0.60550916
23	0xbf0cbb70	-0.54973507
24	0x3eb19d03	0.34690103
25	0x3f136b03	0.5758516
26	0xbf0be260	-0.54642296
27	0xbe52d157	-0.2058767
28	0xbea06792	-0.31329018
29	0xbf35cb52	-0.7101337
30	0xbf08bd4d	-0.5341385
31	0x3ebb7280	0.36610794
32	0x3f1336cb	0.5750548
33	0x3f97eed5	1.1869761
34	0xbf3e97cd	-0.7445038
35	0x3db0e4fb	0.086374246
36	0x3d078991	0.033090178
37	0x3f559b9b	0.8344056
38	0x3efe8c26	0.497163
39	0xbf413297	-0.7546782
40	0xbd061930	-0.032738864
41	0xbf685140	-0.9074898
42	0xbf31ee37	-0.6950411
43	0x3f851be5	1.0399138
44	0xbf4e9c5d	-0.8070734
45	0xbeceb57b	-0.40372834
46	0xbe3970e5	-0.18109472
47	0x3e8711ba	0.26380712
48	0xbe040c10	-0.12895226
49	0xbf4b6a85	-0.7945941
50	0x3eef86ac	0.46782434
51	0xbf3801fb	-0.7187802
52	0xbecdacdc	-0.40170944
53	0xbed69eec	-0.41918123
54	0x3ec278db	0.3798283
55	0x3f405c03	0.751404
56	0x3e67a306	0.22620782
57	0x3d0c945c	0.034321174
58	0x3dba4499	0.09095115
59	0xbeff8545	-0.49906364
60	0x3f18480f	0.5948495
61	0xbe734bb1	-0.23759343
62	0x3f74a708	0.9556737
63	0x3ee5b124	0.4486171
64	0xbf2c3104	-0.6726229
65	0x3f69e7b5	0.9136918
66	0xbe511354	-0.2041753
67	0xbf7b2414	-0.98101926
68	0x3ebd7d48	0.37009645
69	0x3f17915e	0.5920619
70	0xbd2eb883	-0.042656433
71	0xbf18edfd	-0.5973814
72	0xbf1bed54	-0.6090901
73	0x3f8592ed	1.0435463
74	0x3ebeaed9	0.37242773
75	0x3e352940	0.17691517
76	0x3d1dd213	0.03853042
77	0x3ef71f0c	0.48265874
78	0x3ea510ab	0.3223928
79	0x3f769ee7	0.96336216
80	0xbf147853	-0.579961
81	0xbde63f99	-0.11242599
82	0xbec59a21	-0.38594154
83	0xbe727fd8	-0.23681581
84	0xbeecdfb7	-0.4626443
85	0x3f8ada35	1.0847842
86	0xbecc8059	-0.39941671
87	0x3cb8b1e0	0.022545755
88	0x3f33933a	0.70146525
89	0xbeea7220	-0.45790195
90	0xbf30d448	-0.69073915
91	0xbe4956d9	-0.19662036
92	0xbec0a9b1	-0.37629464
93	0xbf4fc2fd	-0.81156904
94	0xbf00f6d6	-0.5037664
95	0x3d7fcc10	0.06245047
96	0x3dc6bbbd	0.09703777
97	0xbd6f2191	-0.05838162
98	0xbe0b4749	-0.13601412
99	0xbf6011c8	-0.8752713
100	0xbea617fc	-0.32440174
101	0xbe832bd1	-0.25619367
102	0xbe65ceac	-0.2244212
103	0x3dac40c7	0.08410793
104	0x3ea71c41	0.32638744
105	0xbebbf480	-0.36709976
106	0x3f221f3b	0.63328904
107	0x3f1f129a	0.6213776
108	0xbf145f8f	-0.5795831
109	0xbf2eea66	-0.68326414
110	0x3ec0be0c	0.37644994
111	0x3e6af7f8	0.22946155
112	0x3d9fac52	0.07796539
113	0x3f0589d3	0.5216343
114	0x3d730ff6	0.059341393
115	0x3f4c4380	0.79790497
116	0xbf80e245	-1.0069052
117	0xbf49b08d	-0.7878502
118	0x3f02a7dd	0.5103739
119	0xbe689e04	-0.22716528
120	0x3d20f75c	0.0392984
121	0x3db41f73	0.08795061
122	0x3e77e6fc	0.24209207
123	0x3ed09257	0.40736648
124	0xbedc5756	-0.43035382
125	0x3fa49d62	1.286053
126	0x3f74c0b0	0.9560652
127	0xbf75feb0	-0.9609175
128	0x3f6e8055	0.9316457
129	0xbdcf899e	-0.1013367
130	0x3f627f6f	0.884757
131	0x3f05dc7b	0.5228955
132	0x3c16007c	0.009155389
133	0x3f593162	0.8484098
134	0x3ecbb42e	0.39785904
135	0x3eef6d64	0.46763146
136	0x3f5a2c5e	0.8522395
137	0x3db1b21b	0.08676549
138	0xbead0378	-0.3379171
139	0xbf3d757b	-0.74007386
140	0xbe519604	-0.20467383
141	0x3e7052ae	0.2346904
142	0xbf006df8	-0.501678
143	0x3ecf27be	0.40460008
144	0xbf38cc2a	-0.7218653
145	0x3eb7a3c8	0.35867143
146	0xbf54068a	-0.8282248
147	0x3df280ff	0.1184101
148	0x3f1e552f	0.6184873
149	0xbf04a0ef	-0.51808065
150	0x3f826e9a	1.0190003
151	0x3f2d0a23	0.6759359
152	0xbf0a32ae	-0.5398358
153	0xbe65b496	-0.2243217
154	0xbf8311b5	-1.0239779
155	0x3fac9c2f	1.3485163
156	0x3f0b8ded	0.54513437
157	0xbe51607c	-0.20446962
158	0xbe3fcd61	-0.1873069
159	0xbef545ea	-0.47904903
160	0xbe9f4e21	-0.31114295
161	0xbebc2108	-0.3674395
162	0x3e381a72	0.17978838
163	0xbf0b09fe	-0.5431212
164	0xbee54375	-0.44778028
165	0x3eab0f26	0.33409995
166	0xbea9b091	-0.33142522
167	0x3e9170d7	0.28406402
168	0xbd0241de	-0.031801097
169	0x3f53431c	0.82524276
170	0xbd1312a9	-0.035906468
171	0x3e858959	0.2608135
172	0xbf5476ac	-0.8299358
173	0x3f84d3d8	1.037715
174	0x3f1279e4	0.5721724
175	0x3dd8835a	0.10571928
176	0x3ebd4862	0.36969286
177	0xbf038d65	-0.51387626
178	0x3f8141b2	1.0098174
179	0xbf2c04cb	-0.67194813
180	0x3f09b55c	0.5379236
181	0xbcdd276b	-0.026996335
182	0x3f43e753	0.7652485
183	0xbf37a193	-0.7173092
184	0x3e9714e9	0.2950814
185	0x3f51568c	0.81772685
186	0x3eae1779	0.34002283
187	0xbf0bbbf2	-0.54583657
188	0xbef55d9c	-0.4792298
189	0xbf1f6d34	-0.62276006
190	0x3e9af6cb	0.30266413
191	0xbf3ab30d	-0.7292946
192	0xbee8f646	-0.45500392
193	0x3e39a300	0.18128586
194	0x3e89a829	0.2688611
195	0xbf12442e	-0.57135284
196	0xbf5932c4	-0.8484309
197	0xbf8290b3	-1.0200409
198	0xbe9f47f3	-0.3110958
199	0x3f4cdabb	0.80021256
200	0x3dc9907c	0.09842011
201	0x3f7581aa	0.95900977
202	0x3e957770	0.29192686
203	0xbf0427b8	-0.51623106
204	0xbea5f386	-0.32412356
205	0xbd41b746	-0.047293924
206	0x3f27bbb0	0.65520763
207	0xbf406b3b	-0.7516362
208	0x3e7ddd1c	0.24791378
209	0xbf17aba9	-0.5924631
210	0x3f2dd358	0.6790061
211	0xbf9fab80	-1.2474213
212	0xbd0070bd	-0.031357516
213	0xbe81b7c2	-0.2533551
214	0x3f63c8cd	0.8897827
215	0xbd6aa184	-0.05728294
216	0x3ea454a1	0.32095817
217	0xbf9139bb	-1.1345743
218	0x3efb0349	0.49025944
219	0x3e6bb9ed	0.23020144
220	0xbde7d96a	-0.11320765
221	0xbeed0610	-0.46293688
222	0xbdb22de9	-0.08700163
223	0xbef911f0	-0.48646498
224	0xbf6c0660	-0.9219723
225	0xbf2dac01	-0.6784058
226	0x3e34a044	0.17639261
227	0x3f59ed5b	0.851278
228	0xbd82bea5	-0.06384019
229	0xbd3d9814	-0.04628761
230	0x3f962dae	1.173269
231	0x3f80a667	1.0050782
232	0x3eb862be	0.36012834
233	0x3f0e72ce	0.5564393
234	0x3ebc6f81	0.3680382
235	0x3ed8b57b	0.4232596
236	0xbf6c57a9	-0.9232126
237	0x3f798743	0.9747202
238	0xbe68e89d	-0.22744985
239	0xbea50d85	-0.32236877
240	0xbef7073e	-0.48247713
241	0x3f7ad467	0.9798035
242	0x3e5542a2	0.208262
243	0xbef0556d	-0.46940175
244	0xbd4c7e27	-0.049924996
245	0xbec70b53	-0.38875827
246	0xbda540e6	-0.08069019
247	0xbf39e479	-0.72614247
248	0xbf2261c5	-0.63430434
249	0xbf036fea	-0.5134264
250	0x3d3bec33	0.045879554
251	0x3f1e1f6a	0.61766684
252	0x3f29c025	0.66308814
253	0x3d56015a	0.052247383
254	0x3d8386e1	0.064222105
255	0x3f7a9986	0.9789051

classifier.4.bias f4 [10]
0	0x3d9b00b1	0.07568491
1	0x3d2ecb9a	0.04267464
2	0x3d5538f9	0.052056286
3	0xbe36aefc	-0.17840189
4	0x3dc192ae	0.09451805
5	0xbcb794f6	-0.022409897
6	0x3d4bf179	0.049790833
7	0xbc800674	-0.015628077
8	0x3b0432b4	0.0020171823
9	0x3ca7831e	0.020448264
